cifar_net.pth (torch, 251167 bytes, 10 tensors)

conv1.weight f4 [6, 3, 5, 5]
0.17646563 0.057245936 -0.18687722 -0.17136253 -0.023404226 -0.0021864814 -0.2504363 -0.1873849
-0.10589418 -0.043269392 -0.16690585 -0.26863694 -0.19594589 -0.11977815 -0.08784587 0.0076794387
0.07552547 -0.010483352 -0.13171689 -0.12839821 0.18768102 0.12963654 0.12272113 0.19782901
0.08902101 -0.005268688 -0.112429224 -0.16113174 -0.14183219 -0.0587309 -0.05522885 -0.18305676
-0.15393832 -0.027261026 0.07671224 -0.27439374 -0.15425982 -0.08814698 -0.07585232 0.014760514
-0.13894887 -0.056381088 -0.08433527 -0.13409841 -0.116060786 0.109669596 0.19293758 0.17466009
0.0532791 0.031245383 0.2784634 0.061527304 -0.11398474 0.015769534 0.044596486 0.12123283
-0.1510175 -0.113230325 -0.023331732 0.044344768 -0.1244945 -0.20741023 -0.10797149 0.008674632
0.06443658 0.026667736 -0.0431299 0.026615137 0.14255396 -0.007550613 0.24064218 0.20284179
0.28083837 0.088693716 0.23228604 0.13524458 0.40166435 0.31636724 0.41571343 0.31592095
0.20336097 0.14660366 0.28237444 0.30163696 0.35027686 0.050744385 0.098457806 0.12830576
0.2538542 0.2130975 -0.0014983246 -0.16949163 -0.13537377 0.061643116 0.2163613 0.071242854
-0.28809345 -0.3224974 -0.13929309 -0.1833464 -0.19045386 -0.2985834 -0.16448073 -0.010009649
-0.19709876 -0.30826432 -0.3353784 -0.34455463 -0.15275542 -0.15491666 -0.19551009 -0.24841675
-0.3455922 -0.08912405 -0.12943862 -0.03227572 -0.1652425 -0.14458852 -0.086773425 0.07387634
0.14034426 0.022290716 -0.26161838 -0.21460757 -0.08817521 -0.19682258 -0.12873477 0.005107468
-0.09289452 0.097342305 -0.19464165 -0.16259122 -0.05053182 0.025484676 0.06433199 0.08467071
-0.063585944 -0.12895036 0.06839314 0.13994746 0.21508801 -0.04422126 0.0033001895 0.18924542
0.29397085 0.39683464 0.21528178 -0.065678954 0.013494262 0.07152216 0.11450996 -0.6538939
-0.091160946 0.34243146 0.033930115 -0.12066118 -0.736292 0.08685696 0.42797127 0.12350237
-0.0010251988 -0.3292097 -0.04086839 0.08735782 0.12849581 0.13871032 0.047880642 -0.18841314
0.03967646 -0.054413855 0.100320786 0.21115568 -0.04095041 -0.041955236 0.04620177 0.09527719
-0.6667349 0.081066474 0.4813291 0.109349445 0.057082966 -0.6600818 0.058896728 0.5522384
0.044820074 0.114811644 -0.2567414 -0.077363245 0.24652801 0.0015573765 0.050377246 -0.007644654
-0.12790307 -0.018888194 0.103892595 0.10513989 0.0062527386 -0.032218937 -0.10357964 0.100216374
0.098333545 -0.60714394 -0.08404174 0.42378145 -0.025541503 -0.07934754 -0.5488661 0.25584713
0.39799505 0.14404897 -0.028521748 -0.2695295 -0.08928771 0.22598647 -0.024328407 0.23776326
0.037771426 -0.14470685 0.085181765 0.055987094 0.10288964 0.09894381 -0.05409129 -0.09254975
-0.095105864 -0.1375873 -0.23872256 -0.24408156 -0.26480302 0.037535317 0.20590454 0.51082367
0.5139466 0.45639202 0.34525952 0.022667687 0.1477585 0.2889174 0.26773164 -0.13100284
-0.21197107 -0.32640266 -0.3614494 -0.49517107 -0.35595042 -0.022690177 -0.03322593 -0.14236343
-0.10774959 0.09473553 -0.20059463 -0.3314926 -0.20220202 -0.16840929 -0.13704602 0.31403497
00000000: 68b3 343e b77a 6a3d be5c 3fbe a979 2fbe
00000010: 38ba bfbc 124b 0fbb 3039 80be d4e1 3fbe
00000020: 0cdf d8bd 3f3b 31bd 5ee9 2abe c88a 89be
00000030: 0aa6 48be 3f4e f5bd 89e8 b3bd cda3 fb3b
00000040: 19ad 9a3d 5dc2 2bbc cbe0 06be d27a 03be
00000050: 742f 403e 71bf 043e 3755 fb3d b093 4a3e
00000060: a650 b63d f5a4 acbb 4b41 e6bd b8ff 24be
00000070: 753c 11be d08f 70bd a637 62bd 3b73 3bbe
00000080: 02a2 1dbe 8452 dfbc 4f1b 9d3d 567d 8cbe
00000090: 49f6 1dbe 6786 b4bd 7658 9bbd 15d6 713c
000000a0: 9d48 0ebe dbef 66bd f8b7 acbd 1851 09be
000000b0: 47b1 edbd 749a e03d 6e91 453e 18da 323e
000000c0: 303b 5a3d 51f6 ff3c c192 8e3e 0e04 7c3d
000000d0: d570 e9bd 1c2f 813c ceaa 363d eb48 f83d
000000e0: 55a4 1abe 4de5 e7bd 3022 bfbc dca2 353d
000000f0: f9f6 febd 5963 54be 2820 ddbd 0b20 0e3c
00000100: 53f7 833d 4c76 da3c faa8 30bd fd07 da3c
00000110: aaf9 113e 226b f7bb e76a 763e c2b5 4f3e
00000120: 0cca 8f3e 0da5 b53d 64dc 6d3e 8e7d 0a3e
00000130: f3a6 cd3e e3fa a13e 64d8 d43e 64c0 a13e
00000140: dc3d 503e 451f 163e 6293 903e 2970 9a3e
00000150: 7d57 b33e 58d9 4f3d 3fa4 c93d 9662 033e
00000160: 2df9 813e 3b36 5a3e 6e63 c4ba 378f 2dbe
00000170: 6c9f 0abe 7e7d 7c3d d18d 5d3e c6e7 913d
00000180: fc80 93be 611e a5be d9a2 0ebe 29bf 3bbe
00000190: 5606 43be ecdf 98be a36d 28be 83ff 23bc
000001a0: 42d4 49be d2d4 9dbe b8b6 abbe 7769 b0be
000001b0: eb6b 1cbe 79a2 1ebe cc33 48be f660 7ebe
000001c0: 76f1 b0be ac86 b6bd 8f8b 04be 8c33 04bd
000001d0: 5435 29be 030f 14be 44b6 b1bd 7b4c 973d
000001e0: 68b6 0f3e 059b b63c d8f2 85be 16c2 5bbe
000001f0: 3495 b4bd dc8b 49be 0cd3 03be 8c5c a73b
00000200: 7b3f bebd 675b c73d 2450 47be 507e 26be
00000210: 74fa 4ebd 3dc5 d03c 7ec0 833d d667 ad3d
00000220: 5939 82bd 900b 04be b411 8c3d 634e 0f3e
00000230: 0840 5c3e 5a21 35bd fe47 583b 8dc9 413e
00000240: 5983 963e e92d cb3e d472 5c3e b082 86bd
00000250: 0917 5d3c 367a 923d 3384 ea3d 9765 27bf
00000260: 97b2 babd 2d53 af3e 4efa 0a3d 351d f7bd
00000270: a27d 3cbf 10e2 b13d 0d1f db3e d0ee fc3d
00000280: f75f 86ba 2c8e a8be 9d65 27bd a8e8 b23d
00000290: 6894 033e 140a 0e3e 7e1e 443d 60ef 40be
000002a0: c983 223d 10e1 5ebd fc74 cd3d 3239 583e
000002b0: 9ebb 27bd 41d9 2bbd 113e 3d3d b020 c33d
000002c0: 23af 2abf 2e06 a63d c570 f63e 9af2 df3d
000002d0: d4cf 693d 1ffb 28bf b23d 713d 7f5f 0d3f
000002e0: 4195 373d 5e22 eb3d 9c73 83be 9f70 9ebd
000002f0: d771 7c3e e220 cc3a 5f58 4e3d 0180 fabb
00000300: 06f9 02be 6abb 9abc a4c5 d43d 9553 d73d
00000310: c6e3 cc3b 01f8 03bd 9021 d4bd 3e3e cd3d
00000320: 1963 c93d c96d 1bbf 131e acbd e2f9 d83e
00000330: 6a3c d1bc f780 a2bd 7d82 0cbf 65fe 823e
00000340: 02c6 cb3e 9381 133e 71a6 e9bc c5ff 89be
00000350: 7adc b6bd ff68 673e 5e4c c7bc 3678 733e
00000360: 36b6 1a3d 082e 14be c773 ae3d b952 653d
00000370: ceb7 d23d 0da3 ca3d d48e 5dbd b98a bdbd
00000380: ddc6 c2bd afe3 0cbe b073 74be 84f0 79be
00000390: 4394 87be a2be 193d a4d8 523e 57c5 023f
000003a0: 0192 033f 37ac e93e dbc5 b03e 96b1 b93c
000003b0: 014e 173e fbec 933e 1f14 893e 9c25 06be
000003c0: f20e 59be 401e a7be e50f b9be 1087 fdbe
000003d0: 223f b6be c0e0 b9bc ea17 08bd b8c7 11be
000003e0: d1ab dcbd b404 c23d ae68 4dbe 66b9 a9be
000003f0: 0c0e 4fbe 7c73 2cbe cb55 0cbe 31c9 a03e

conv1.bias f4 [6]
-0.411966 -0.33087295 -0.15739033 -0.36530676 0.26492614 0.14783214
00000000: 35ed d2be 2e68 a9be ee2a 21be 7d09 bbbe
00000010: 66a4 873e 4f61 173e

conv2.weight f4 [16, 6, 5, 5]
-0.10814653 0.05732849 -0.10159716 -0.14020458 -0.14575337 -0.15426417 -0.10099587 -0.063777305
-0.12380156 -0.1513859 -0.08740319 -0.16177137 -0.14921407 -0.1954618 0.010493395 -0.007800803
0.05728245 0.12003716 0.02942048 0.10511279 0.042822544 0.19078192 0.1900821 0.14662288
0.030336687 -0.008391574 -0.08091331 -0.035365622 -0.016151713 -0.044489954 0.07128481 0.04110046
0.057128638 -0.054790027 -0.018843614 0.2209049 -0.060100216 0.11472955 -0.07572834 0.041654278
0.16942596 0.01807195 0.06802582 -0.08174966 -0.13282515 -0.020625222 -0.08821429 -0.09397032
-0.15658882 -0.31110373 -0.23421206 -0.16274866 -0.024115477 -0.0027342 -0.043604374 -0.03174335
-0.20772497 -0.046938963 -0.07302523 -0.07650375 0.27714917 -0.15617763 -0.11559791 -0.17448895
-0.04083238 0.26212597 0.0016200142 0.117876254 -0.06942709 0.20364091 -0.04327269 -0.08764256
0.0111184055 -0.0070831096 0.35746104 0.039953828 0.064952396 0.09584159 -0.0012766449 0.15885025
-0.047860306 0.006105666 -0.030984685 0.06162383 0.059336822 0.12505013 -0.06585721 -0.04043944
0.064866476 0.0047431323 0.041937403 0.14130409 0.1840025 0.030773373 0.06466146 0.099913165
0.23394255 0.3129863 0.21582164 0.07720759 0.14695455 0.1284211 0.10419995 0.15082283
0.09405185 0.0053507746 0.06724915 0.15829347 0.02877266 0.018522011 -0.0112988 -0.00041819795
0.06523519 -0.05465975 0.012498583 0.030099928 0.05886174 0.022299958 0.07437509 -0.10630759
0.0054887934 0.009315743 0.061312072 -0.14883673 -0.10982621 -0.00078015326 0.060476255 0.023340983
0.063137956 0.029146902 -0.033138216 -0.0860768 0.07866695 0.088058986 -0.038905393 -0.0142444745
0.012248174 -0.022736428 -0.10038851 -0.16657062 -0.09525144 -0.12034023 -0.049063697 -0.15515919
-0.21737072 -0.20606278 -0.26362634 -0.092517994 -0.14546163 -0.107171476 -0.156565 -0.004674951
-0.08853585 0.015031131 0.17337947 -0.0024748377 -0.037651777 -0.09415923 0.07861116 0.08792002
-0.00579447 -0.10456446 -0.091702364 0.060855128 0.088823035 0.0017426736 -0.12158934 -0.09964603
0.017040363 0.15753016 0.04107209 -0.11606673 -0.055853073 -0.1053829 0.0240685 0.14578024
-0.0030710674 -0.052416734 -0.06483821 0.10032081 0.11771686 0.03758699 -0.024124222 0.047465917
0.15287204 0.038923874 -0.008575597 -0.12564535 -0.08144098 0.13775972 -0.034619376 -0.10113093
-0.04080081 -0.06943156 0.07436597 -0.07973072 -0.03172985 -0.08555376 0.026169958 0.10892291
-0.114764266 -0.102337815 -0.03619598 -0.04126854 0.06376433 -0.03158209 0.08802184 -0.0027988062
-0.0011903712 -0.0077433796 0.08730588 0.10204721 -0.025392005 -0.036490604 0.028795896 0.16144493
0.08529416 -0.07683042 -0.0789427 -0.002725339 0.06901317 -0.09235485 -0.14705785 -0.1226419
-0.02809531 0.18369725 0.08683996 0.020454312 -0.14766194 -0.20131649 0.09483327 0.021622887
-0.115390345 -0.16658245 -0.01868922 -0.014942778 -0.03544208 -0.10302349 -0.10665115 -0.072864816
-0.0485886 -0.13340175 -0.13405606 -0.23168592 -0.085389294 -0.076601766 -0.13972323 -0.08068328
-0.13581887 -0.16427258 0.022354802 -0.03511712 0.035538144 -0.07478585 0.0317085 -0.028913882
00000000: ee7b ddbd 47d1 6a3d 2c12 d0bd ca91 0fbe
00000010: 5f40 15be 6df7 1dbe ecd6 cebd ad9d 82bd
00000020: ac8b fdbd e804 1bbe 7200 b3bd 65a7 25be
00000030: 93cb 18be 2327 48be 7dec 2b3c e19d ffbb
00000040: 01a1 6a3d 0bd6 f53d 3803 f13c 6045 d73d
00000050: b166 2f3d 565c 433e e2a4 423e 4f24 163e
00000060: a584 f83c d07c 09bc e1b5 a5bd 8bdb 10bd
00000070: 9950 84bc 193b 36bd c5fd 913d f558 283d
00000080: b8ff 693d 826b 60bd ec5d 9abc e534 623e
00000090: a52b 76bd 54f7 ea3d 7617 9bbd ad9d 2a3d
000000a0: 007e 2d3e a00b 943c 1f51 8b3d 5e6c a7bd
000000b0: 5103 08be 3af6 a8bc b2a9 b4bd 8373 c0bd
000000c0: d258 20be fd48 9fbe 49d5 6fbe 96a7 26be
000000d0: d28d c5bc 4430 33bb 809a 32bd 5105 02bd
000000e0: dbb5 54be 1243 40bd 408e 95bd 00ae 9cbd
000000f0: 7fe6 8d3e 07ed 1fbe 99be ecbd 3bad 32be
00000100: db3f 27bd 6035 863e a856 d43a 1b69 f13d
00000110: ca2f 8ebd 3e87 503e b43e 31bd f17d b3bd
00000120: f929 363c 6e19 e8bb 2205 b73e a0a6 233d
00000130: c305 853d 9848 c43d 1855 a7ba a4a9 223e
00000140: 2b09 44bd 0a12 c83b 98d3 fdbc 4569 7c3d
00000150: 2b0b 733d 240d 003e 25e0 86bd d4a3 25bd
00000160: b7d8 843d 476c 9b3b 8ec6 2b3d 05b2 103e
00000170: 276b 3c3e 7118 fc3c 3a6d 843d 469f cc3d
00000180: a38e 6f3e be3f a03e 5900 5d3e 031f 9e3d
00000190: 417b 163e d280 033e c966 d53d 4d71 1a3e
000001a0: 429e c03d 8d55 af3b ecb9 893d af17 223e
000001b0: a4b4 eb3c 79bb 973c 9a1e 39bc 9441 dbb9
000001c0: 079a 853d e7e2 5fbd dbc6 4c3c 2094 f63c
000001d0: 0219 713d 67ae b63c f851 983d cbb7 d9bd
000001e0: 56db b33b 0fa1 183c 5e22 7b3d a868 18be
000001f0: 90ec e0bd 3383 4cba f3b5 773d 9735 bf3c
00000200: 794e 813d 7cc5 ee3c f0bb 07bd 0949 b0bd
00000210: 231c a13d 4558 b43d 435b 1fbd a861 69bc
00000220: 91ac 483c bf41 babc 7e98 cdbd 7d91 2abe
00000230: 3013 c3bd f074 f6bd 04f7 48bd 0de2 1ebe
00000240: 6e96 5ebe 1f02 53be 08fa 86be 137a bdbd
00000250: e5f3 14be b87c dbbd 9352 20be 5530 99bb
00000260: 4952 b5bd 2245 763c 638a 313e e330 22bb
00000270: c038 1abd 8ed6 c0bd e3fe a03d 690f b43d
00000280: 8adf bdbb e425 d6bd 73ce bbbd 3a43 793d
00000290: dae8 b53d 6c6a e43a d503 f9bd 3813 ccbd
000002a0: 3b98 8b3c 964f 213e 353b 283d 65b4 edbd
000002b0: 31c6 64bd fdd2 d7bd 4e2b c53c 6a47 153e
000002c0: f643 49bb eeb2 56bd e5c9 84bd ff74 cd3d
000002d0: 8915 f13d d1f4 193d 29a0 c5bc 9f6b 423d
000002e0: 7d8a 1c3e a46e 1f3d a980 0cbc 2da9 00be
000002f0: 87ca a6bd e210 0d3e 0ccd 0dbd bc1d cfbd
00000300: c01e 27bd 2232 8ebd 304d 983d dc49 a3bd
00000310: 29f7 01bd cf36 afbd 6162 d63c fa12 df3d
00000320: 8709 ebbd 7d96 d1bd 3c42 14bd 3309 29bd
00000330: e096 823d 395c 01bd cb44 b43d 2d6c 37bb
00000340: 3b06 9cba 2dbc fdbb 6dcd b23d 21fe d03d
00000350: e502 d0bc 2c77 15bd 5fe5 eb3c d251 253e
00000360: b4ae ae3d 4459 9dbd b6ac a1bd 9a9b 32bb
00000370: c756 8d3d 8a24 bdbd 5596 16be ad2b fbbd
00000380: 2328 e6bc 221b 3c3e 26d9 b13d cd8f a73c
00000390: b134 17be e925 4ebe f237 c23d 7b22 b13c
000003a0: c651 ecbd 9794 2abe 231a 99bc 8ed2 74bc
000003b0: b72b 11bd fbfd d2bd eb6b dabd 263a 95bd
000003c0: d704 47bd 789a 08be fe45 09be 133f 6dbe
000003d0: 95e0 aebd 63e1 9cbd 9b13 0fbe 473d a5bd
000003e0: 1a14 0bbe 1237 28be 6b21 b73c f8d6 0fbd
000003f0: 7290 113d 5329 99bd c6e0 013d cedc ecbc

conv2.bias f4 [16]
-0.5607894 -0.05454676 -0.25627625 -0.31281954 -0.44904095 0.2902607 -0.08503155 -0.44653088
-0.14333928 0.04076386 0.7415658 -0.20160782 1.2478912 0.22681482 -0.35817987 -0.048757628
00000000: e58f 0fbf 6c6c 5fbd a436 83be e229 a0be
00000010: b2e8 e5be 0d9d 943e 0525 aebd b29f e4be
00000020: 88c7 12be 01f8 263d 42d7 3d3f 4872 4ebe
00000030: e6ba 9f3f 2542 683e 5a63 b7be 14b6 47bd

fc1.weight f4 [120, 400]
-0.016281543 -0.019903969 0.0009273088 -0.045756184 -0.0037615155 -0.025923835 -0.0041273325 0.037520926
-0.015286301 0.03677695 0.0043396275 0.017418409 0.030388903 -0.03514203 -0.027513968 -0.015482614
0.041349657 0.015947744 -0.017324215 0.01960694 0.036350638 0.04689767 -0.001799301 0.004567467
0.04430766 0.010213325 -0.042117596 -0.030188749 -0.02289093 -0.0064773755 -0.0033450902 0.051499475
-0.02471528 0.03741653 0.04470268 0.01570727 0.046367615 -0.022352746 -0.04469877 -0.026758628
-0.049219094 -0.023269456 0.025167497 -0.05140836 -0.022185564 -0.045512665 0.0032925745 -0.027080402
0.024857415 -0.021485033 0.024301521 -0.028511358 0.04027237 -0.018003648 -0.0070995535 0.022695312
-0.0026678995 -0.033595122 -0.023464484 0.03079138 -0.024482207 0.024926739 0.04125073 0.023954524
0.00875248 -0.018001933 0.016719928 0.043288115 -0.01058456 0.041090395 0.01403879 0.04759774
-0.008605957 0.030857595 0.023812665 -0.020885939 -0.04750278 0.005807435 -0.032480694 0.031865582
-0.040777575 -0.0022893457 -0.02002626 0.015540808 -0.03960763 -0.023506498 0.022459315 0.034687858
-0.008743156 -0.051823694 0.046832487 0.04246203 0.025444128 0.048208777 0.006926143 -0.03346797
0.01865583 -0.02983862 -0.014619863 -0.04550686 -0.017238261 -0.031375844 -0.013768341 0.043851066
0.028235521 -0.007848668 -0.050778672 0.013985058 0.0082486905 -0.05111936 -0.0003393215 0.0037109405
0.024418589 -0.022849921 -0.039324325 -0.00952272 0.011680937 0.054698106 -0.037605852 0.028825177
-0.048501816 0.019198703 -0.016132893 -0.011597035 -0.047029883 0.0012478018 -0.025700971 -0.036003124
-0.0022584859 -0.030916117 -0.022141892 0.010885926 -0.013909278 -0.04212071 0.02477092 -0.03896427
-0.0075001623 -0.017083982 -0.03606555 -0.036369592 -0.039246727 -0.0069957785 0.043369945 -0.015686983
0.00037049028 -0.023972087 0.038562596 -0.011326147 -0.0185823 0.009366909 -0.042813256 -0.017563056
0.008628854 0.032968335 -0.0065470594 0.042367574 0.039220057 -0.01490078 -0.020346042 -0.009397443
-0.037769694 0.036713023 0.036450144 -0.051702384 0.017645348 0.006602407 -0.0174749 0.027160188
-0.015040526 -0.0543671 -0.020337934 -0.040396538 -0.025399989 0.044321716 0.008783246 -0.004641458
-0.012689691 0.024204643 0.02940236 -0.038429473 0.02387444 -0.026245952 0.048731197 0.043267924
-0.015117374 -0.023916742 0.042508394 -0.018342122 -0.012367271 -0.010152345 0.014130091 -0.031869985
0.0018730847 -0.043964505 -0.0058630607 -0.0013210302 -0.018106647 -0.04151487 -0.02196073 0.05248922
0.03245496 0.005807912 -0.023926541 0.03274889 0.00654768 -0.002049429 0.024833944 0.017717004
0.021501714 0.033186156 -0.043074895 0.031603627 0.0293994 -0.0046656495 -0.010188141 0.031724438
0.009783772 -0.038776517 -0.03606601 0.021325227 -0.019421916 -0.045066804 -0.04424143 0.003466289
-0.04201464 -0.007898437 -0.025696052 -0.03932301 0.036186054 0.025497746 -0.033079136 -8.0393984e-05
0.008193691 -0.041779347 0.02516319 0.04017051 0.024615547 0.0164324 0.045825213 -0.021803604
0.013764673 0.022421028 -0.032458507 -0.01706143 0.045911115 0.020832434 -0.011559147 0.03569991
0.013295959 0.051038913 -0.048059005 -0.032957043 0.0072393604 0.007045483 0.045271333 0.042665813
00000000: df60 85bc a60d a3bc a416 733a d66a 3bbd
00000010: c283 76bb 395e d4bc 933e 87bb 8baf 193d
00000020: 6573 7abc 6da3 163d 6f33 8e3b 0db1 8e3c
00000030: 26f2 f83c 17f1 0fbd f964 e1bc caaa 7dbc
00000040: 425e 293d d8a4 823c 83eb 8dbc bc9e a03c
00000050: 68e4 143d c517 403d 86d6 ebba b1aa 953b
00000060: f37b 353d ca55 273c 8083 2cbd 654e f7bc
00000070: c285 bbbc 2a40 d4bb 4d39 5bbb 1df1 523d
00000080: b377 cabc 1342 193d 281a 373d 88ac 803c
00000090: f8eb 3d3d 1b1d b7bc 0f16 37bd e934 dbbc
000000a0: f699 49bd 969f bebc 112c ce3c 9391 52bd
000000b0: 80be b5bc 7d6b 3abd 3cc8 573b b8d7 ddbc
000000c0: c7a1 cb3c 6101 b0bc fc13 c73c a790 e9bc
000000d0: a4f4 243d 637c 93bc 5fa3 e8bb 85eb b93c
000000e0: edd7 2ebb 0a9b 09bd 9738 c0bc 343e fc3c
000000f0: e98e c8bc 2933 cc3c 87f6 283d 473c c43c
00000100: 9066 0f3c ca78 93bc 3bf8 883c e14e 313d
00000110: dd6a 2dbc 674e 283d f402 663c d9f5 423d
00000120: 0000 0dbc 11c9 fc3c c712 c33c fd18 abbc
00000130: 4692 42bd 4c4c be3b 7a0a 05bd 7c85 023d
00000140: 6306 27bd d908 16bb 1c0e a4bc e09e 7e3c
00000150: 9c3b 22bd b390 c0bc 99fc b73c db14 0e3d
00000160: 743f 0fbc 1545 54bd 6cd3 3f3d aaec 2d3d
00000170: 3470 d03c 9176 453d b3f4 e23b b615 09bd
00000180: 1cd4 983c 1f70 f4bc 2688 6fbc 6765 3abd
00000190: 4137 8dbc f583 00bd 9c94 61bc 2d9d 333d
000001a0: 2e4e e73c b397 00bc 4cfd 4fbd 9621 653c
000001b0: 8425 073c 8962 51bd f6e6 b1b9 4033 733b
000001c0: 7e09 c83c c22f bbbc 8b12 21bd 2f05 1cbc
000001d0: 6761 3f3c 1f0b 603d 9808 1abd c722 ec3c
000001e0: d7a9 46bd 9946 9d3c 2129 84bc 7e01 3ebc
000001f0: 68a2 40bd 488d a33a d88a d2bc 0378 13bd
00000200: 1b03 14bb cc43 fdbc ea62 b5bc e25a 323c
00000210: bee3 63bc c486 2cbd 62ec ca3c 0099 1fbd
00000220: ecc3 f5bb b5f3 8bbc 78b9 13bd 48f8 14bd
00000230: 2dc1 20bd d83c e5bb afa4 313d fd81 80bc
00000240: 5d3e c239 1c61 c4bc d0f3 1d3d 4e91 39bc
00000250: e839 98bc aa77 193c f45c 2fbd 66e0 8fbc
00000260: 0960 0d3c ce09 073d b788 d6bb 9f89 2d3d
00000270: 36a5 203d 6722 74bc beac a6bc bcf7 19bc
00000280: 65b4 1abd 6560 163d bf4c 153d e1c5 53bd
00000290: fa8c 903c 0159 d83b 8627 8fbc 0b7f de3c
000002a0: 8a6c 76bc 09b0 5ebd bd9b a6bc d776 25bd
000002b0: a313 d0bc b08a 353d 9be7 0f3c 5f17 98bb
000002c0: 6ce8 4fbc d148 c63c 38dd f03c 3968 1dbd
000002d0: 5494 c33c c001 d7bc 5d9a 473d b539 313d
000002e0: ddae 77bc 0bed c3bc 481d 2e3d 3842 96bc
000002f0: 18a0 4abc 0556 26bc e681 673c 1a8a 02bd
00000300: 4b82 f53a 2014 34bd eb1e c0bb 6b26 adba
00000310: 6454 94bc 7f0b 2abd fde6 b3bc f0fe 563d
00000320: 7eef 043d 4c50 be3b 9801 c4bc b323 063d
00000330: ec8d d63b b74f 06bb 8e70 cb3c 4023 913c
00000340: 5d24 b03c 35ee 073d 4d6f 30bd ce72 013d
00000350: 03d7 f03c 4ee2 98bb 29ec 26bc 7cf1 013d
00000360: 1d4c 203c 20d4 1ebd f4b9 13bd 3eb2 ae3c
00000370: b61a 9fbc f897 38bd 8036 35bd ae2a 633b
00000380: 8b17 2cbd 7268 01bc 8780 d2bc 2a11 21bd
00000390: d437 143d a6e0 d03c fd7d 07bd 3199 a8b8
000003a0: d53e 063c d220 2bbd 0923 ce3c d589 243d
000003b0: 8ba6 c93c 3e9d 863c 38b3 3b3d 799d b2bc
000003c0: 3985 613c 4eac b73c 36f3 04bd 69c4 8bbc
000003d0: 4b0d 3c3d c8a8 aa3c 9462 3dbc 123a 123d
000003e0: 4bd7 593c 2e0e 513d 85d9 44bd f7fd 06bd
000003f0: 2838 ed3b ccdd e63b 6f6e 393d 59c2 2e3d

fc1.bias f4 [120]
-0.04123685 -0.037890293 0.041762937 0.019780807 0.01498194 0.008976228 -0.038197916 0.07852241
0.021347253 -0.03338323 -0.084510595 -0.032544613 0.12136976 -0.014262431 -0.01634944 -0.02663244
0.11649783 0.108901635 0.07913807 0.033833377 0.0015267603 -0.010268188 -0.033925615 0.027553491
0.05214116 0.021337902 -0.01716406 -0.0074024578 0.0038681848 0.015408603 -0.03632376 0.076816134
0.028689807 0.036127407 0.013450083 -0.012881991 0.080255315 0.0026159843 -0.007391308 -0.0043930383
-0.040015854 -0.0661364 -0.10833107 0.018783532 -0.017847171 -0.1047126 0.055032335 0.07432608
0.12032256 0.013485341 0.079102285 0.09053842 0.13031489 0.106945574 0.009338524 0.005564737
0.12102972 0.03429428 -0.034350265 -0.1449651 0.020793961 -0.041484155 0.005862607 0.08642628
-0.0008766331 -0.09528715 -0.011329473 -0.09947594 0.041563135 -0.045144677 0.09516272 0.04184101
0.15699045 0.17691411 0.1446226 -0.09717982 -0.024935294 0.17500196 0.052478287 0.050802622
-0.109223 0.12619838 0.004054512 -0.0071163815 0.23647524 0.060566317 0.059370317 -0.02372653
-0.017438086 0.07657926 0.04918789 -0.2737629 0.023606926 -0.00077878253 -0.1414545 -0.03243383
-0.013282701 -0.050239343 0.0041452637 -0.066170074 0.0024133981 -0.022719178 -0.0029580072 0.00031470362
0.22689083 0.01167882 0.054192226 -0.0607832 -0.05250142 0.14272928 0.15616032 -0.04614071
0.04751626 0.008824638 0.10192846 -0.07760174 -0.013935673 -0.011615342 0.07971213 0.08001861
00000000: f9e7 28bd da32 1bbd 9d0f 2b3d 5c0b a23c
00000010: d076 753c 0711 133c 6b75 1cbd 5bd0 a03d
00000020: 6fe0 ae3c dbbc 08bd e413 adbd 804d 05bd
00000030: b590 f83d f9ac 69bc 43ef 85bc 462c dabc
00000040: 6a96 ee3d d207 df3d 2413 a23d de94 0a3d
00000050: 931d c83a e73b 28bc 96f5 0abd dcb7 e13c
00000060: f891 553d d3cc ae3c a59b 8cbc 5190 f2bb
00000070: 5f81 7d3b 5d74 7c3c 39c8 14bd c751 9d3d
00000080: e306 eb3c 55fa 133d bd5d 5c3c fd0e 53bc
00000090: e65c a43d ef70 2b3b c932 f2bb 7af3 8fbb
000000a0: aae7 23bd 8572 87bd aedc ddbd ecdf 993c
000000b0: 3b34 92bc 8f73 d6bd 9669 613d 4638 983d
000000c0: ad6b f63d 9ff1 5c3c 6100 a23d 356c b93d
000000d0: 4471 053e 4806 db3d 9c00 193c 6658 b63b
000000e0: 6ede f73d 2978 0c3d ddb2 0cbd bb71 14be
000000f0: 1958 aa3c 4aeb 29bd 1d1b c03b 4300 b13d
00000100: dacd 65ba e925 c3bd 419f 39bc 0bba cbbd
00000110: 1b3e 2a3d a0e9 38bd ace4 c23d 7b61 2b3d
00000120: 1bc2 203e f928 353e f217 143e 3706 c7bd
00000130: 1a45 ccbc b733 333e 79f3 563d 6916 503d
00000140: 4fb0 dfbd 263a 013e b6db 843b 8930 e9bb
00000150: 9126 723e 6314 783d 4a2e 733d 245e c2bc
00000160: 51da 8ebc 96d5 9c3d 3e79 493d a72a 8cbe
00000170: 5063 c13c 3627 4cba 73d9 10be 56d9 04bd
00000180: b09f 59bc c5c7 4dbd fed4 873b 2d84 87bd
00000190: 1a2a 1e3b 921d babc 20db 41bb cefe a439
000001a0: 1256 683e 8558 3f3c abf8 5d3d cef7 78bd
000001b0: bb0b 57bd a027 123e 7ee8 1f3e 0bfe 3cbd
000001c0: 69a0 423d 3795 103c debf d03d a9ed 9ebd
000001d0: 7352 64bc 474e 3ebc 1d40 a33d cce0 a33d

fc2.weight f4 [84, 120]
-0.0015208324 0.117899515 -0.01686211 0.027432095 -0.017306676 -0.06958454 -0.072837435 0.07727457
-0.08350675 -0.0041798404 0.0007024089 0.05524212 0.1748211 0.053221084 -0.11149578 0.029620709
0.020258602 -0.0076656346 0.02320765 -0.022644004 -0.012086557 -0.14444861 0.15202668 -0.047371473
0.04844391 0.02970086 -0.07970226 0.081682175 -0.043092977 0.041755833 -0.046612483 0.0040039048
-0.057949375 -0.06746676 -0.09072999 0.010064468 0.022967245 -0.01568504 0.08445292 0.036227003
-0.09197144 -0.054901198 0.03289637 -0.024288235 0.1094485 -0.048591632 -0.017080743 0.025823316
-0.07164498 0.007944313 0.025424927 -0.01132115 -0.01624305 -0.082661375 -0.11084437 0.0153991785
0.06345793 0.018134343 0.010764458 -0.108624764 0.13632803 0.025833406 -0.05357391 0.07757806
0.01964289 0.024424573 0.043178987 -0.063724644 0.015365538 0.014863463 0.03792211 0.03535052
-0.029209798 0.13466707 0.032488912 0.08455643 -0.051697243 -0.0051989825 -0.046449468 -0.05453691
0.060467463 0.0022886896 -0.033184573 -0.123311006 0.05157535 -0.07383545 0.13199474 0.062768534
-0.049425602 -0.015246577 0.03341358 0.1320589 -0.11700902 -0.046207253 0.057632517 -0.045693055
0.07767713 -0.059428494 -0.095605835 0.042870246 0.0984406 0.07564888 0.074117936 0.08372168
-0.1082924 -0.075918935 -0.008594894 0.005705933 -0.053647634 0.056875303 -0.02489294 -0.031086285
0.089564495 0.04991157 0.051035978 -0.03895932 -0.1156614 0.04745305 -0.005032793 -0.07314537
-0.060381453 0.05658414 0.05312204 0.011580646 -0.07535837 0.085655995 0.0459633 0.055951077
-0.12269082 -0.012119566 0.07324754 -0.024064599 -0.057823356 0.022266062 0.00019640544 -0.06148572
-0.013506556 0.08421894 0.009401516 0.09638434 0.064300746 0.06311493 -0.06918838 0.07126241
-0.009658874 -0.016305376 -0.10466888 0.05994243 -0.028507365 -0.012523773 -0.020884136 0.07172887
0.02138713 0.022133755 -0.0030304964 0.040549014 -0.03183915 -0.053979836 -0.08702614 -0.035203245
0.01812562 -0.10145618 0.04516793 0.06560491 -0.117851615 0.07575776 0.07215723 -0.10852497
-0.059162214 -0.062161125 0.09637231 -0.042750504 -0.021221578 0.113039665 -0.0498742 -0.027624669
0.11127721 0.052261163 -0.10708294 0.07386605 -0.048662543 -0.059117828 0.030831825 -0.00709504
-0.07933151 -0.08644429 -0.043924488 -0.05364226 -0.02914097 -0.09692118 0.04928742 0.028923122
0.023792427 -0.03922211 0.028639449 -0.08049877 -0.14672297 -0.00420385 0.04393347 0.02087258
-0.03960798 -0.1102847 -0.0672923 -0.059222173 0.09857872 0.048763037 -0.09806249 0.022990288
0.01990382 -0.084080264 -0.08900856 -0.09661585 0.07903137 -0.06419533 0.0060889362 -0.10816335
0.053458806 -0.049623545 -0.00051126623 0.058655277 0.004685239 -0.08971833 0.07979738 -0.034834277
-0.021852134 0.052486207 -0.05536399 0.026891783 0.0688416 -0.04215548 -0.009374209 0.011151347
-0.028520275 -0.07678024 0.027461054 -0.0438671 -0.076934904 0.013129542 -0.074399635 0.07322712
0.041274726 0.009751537 0.073249735 0.10323441 -0.087747075 0.0062206653 -0.07998992 0.024758881
0.005957525 0.102435686 -0.07253077 -0.081439674 0.0054999823 -0.06362714 0.008802941 0.017520782
00000000: ab56 c7ba 4d75 f13d 6822 8abc 46b9 e03c
00000010: bbc6 8dbc 5782 8ebd cb2b 95bd 2142 9e3d
00000020: 9605 abbd 0bf7 88bb dd21 383a 9045 623d
00000030: 4d04 333e 5afe 593d e657 e4bd 21a7 f23c
00000040: 5ef5 a53c 0130 fbbb f81d be3c eb7f b9bc
00000050: b206 46bc 56ea 13be e2ac 1b3e 9708 42bd
00000060: 1f6d 463d 384f f33c f03a a3bd fc48 a73d
00000070: 4382 30bd 2a08 2b3d bbec 3ebd 3033 833b
00000080: 535c 6dbd 032c 8abd a5d0 b9bd 70e5 243c
00000090: ce25 bc3c ea7d 80bc a7f5 ac3d c462 143d
000000a0: 865b bcbd 14e0 60bd 58be 063d 1ff8 c6bc
000000b0: 8926 e03d 0508 47bd eaec 8bbc 6b8b d33c
000000c0: 9aba 92bd dd28 023c f047 d03c 587c 39bc
000000d0: 2510 85bc 5e4a a9bd 6002 e3bd d64c 7c3c
000000e0: 3bf6 813d 798e 943c 695d 303c a976 debd
000000f0: 9399 0b3e 94a0 d33c 5170 5bbd 3fe1 9e3d
00000100: 20ea a03c 0b16 c83c 73dc 303d 1182 82bd
00000110: bdbf 7b3c e285 733c 3754 1b3d b5cb 103d
00000120: 6349 efbc 2ae6 093e 1813 053d ec2b ad3d
00000130: 7dc0 53bd 3a5c aabb cc41 3ebd 1862 5fbd
00000140: bbac 773d d7fd 153b 8cec 07bd 7b8a fcbd
00000150: ad40 533d 0a37 97bd a129 073e ca8c 803d
00000160: 8072 4abd c7cc 79bc aedc 083d 733a 073e
00000170: 6da2 efbd d143 3dbd 1310 6c3d a428 3bbd
00000180: 3015 9f3d 4b6b 73bd fecc c3bd b698 2f3d
00000190: 3a9b c93d cded 9a3d 25cb 973d 4676 ab3d
000001a0: 68c8 ddbd 637b 9bbd 99d1 0cbc d6f8 ba3b
000001b0: 9fbd 5bbd 14f6 683d 47ec cbbc aaa8 febc
000001c0: 976d b73d 1370 4c3d 1a0b 513d cf93 1fbd
000001d0: e2df ecbd 215e 423d 21ea a4bb 3dcd 95bd
000001e0: 8b52 77bd c5c4 673d 7f96 593d c0bc 3d3c
000001f0: 7d55 9abd 696c af3d 0344 3c3d f52c 653d
00000200: 5345 fbbd 2591 46bc ce02 963d 1f23 c5bc
00000210: 2fd8 6cbd 5167 b63c 2ff2 4d39 73d8 7bbd
00000220: 9a4a 5dbc fb7a ac3d d108 1a3c 2765 c53d
00000230: 1cb0 833d 6742 813d a3b2 8dbd 07f2 913d
00000240: 4140 1ebc da92 85bc a35c d6bd 3286 753d
00000250: 4788 e9bc 8330 4dbc 3515 abbc 96e6 923d
00000260: 1034 af3c d951 b53c 4b9b 46bb b916 263d
00000270: c569 02bd f619 5dbd c33a b2bd 4731 10bd
00000280: 2e7c 943c 42c8 cfbd 0202 393d de5b 863d
00000290: 305c f1bd e226 9b3d 2bc7 933d 5742 debd
000002a0: 1454 72bd aa9c 7ebd d85e c53d 271b 2fbd
000002b0: e0d8 adbc 5781 e73d e448 4cbd 214d e2bc
000002c0: 4ee5 e33d cd0f 563d 4d4e dbbd 1547 973d
000002d0: 6052 47bd 8925 72bd 0693 fc3c 827d e8bb
000002e0: 8f78 a2bd b409 b1bd 2aea 33bd fdb7 5bbd
000002f0: 0bb9 eebc 9d7e c6bd 9be1 493d 2ff0 ec3c
00000300: 56e8 c23c 5da7 20bd 479d ea3c 8adc a4bd
00000310: 8c3e 16be 73c0 89bb 95f3 333d f9fc aa3c
00000320: fa3b 22bd f2dc e1bd 8cd0 89bd f392 72bd
00000330: a4e3 c93d c0bb 473d fdd4 c8bd 2156 bc3c
00000340: 560d a33c 4632 acbd 1f4a b6bd 88de c5bd
00000350: 33db a13d d778 83bd b385 c73b bf84 ddbd
00000360: 9ff7 5a3d 0f42 4bbd 7f06 06ba 8440 703d
00000370: a286 993b 3ebe b7bd cf6c a33d 63ae 0ebd
00000380: 3f03 b3bc c7fb 563d 5ac5 62bd 284c dc3c
00000390: d3fc 8c3d 39ab 2cbd 4896 19bc 24b4 363c
000003a0: 5aa3 e9bc f53e 9dbd 01f6 e03c fdad 33bd
000003b0: 0c90 9dbd 4a1d 573c d65e 98bd 1af8 953d
000003c0: b00f 293d e9c4 1f3c f503 963d 906c d33d
000003d0: bdb4 b3bd b9d6 cb3b c1d1 a3bd 23d3 ca3c
000003e0: 5837 c33b cdc9 d13d 038b 94bd d8c9 a6bd
000003f0: 3239 b43b f24e 82bd 363a 103c be87 8f3c

fc2.bias f4 [84]
-0.04084523 0.17199194 0.15938261 0.0078110145 -0.1278643 0.07837949 0.34696898 0.052253574
0.056127958 0.12552333 -0.04439621 0.13295001 0.111835726 -0.020245837 -0.049627036 0.33000094
0.11745842 0.017662069 -0.20187382 0.17022371 0.35901996 0.029270835 -0.058115337 0.21813607
0.28144524 0.02904436 0.24828963 0.050928175 -0.06805888 0.014734166 -0.07911136 -0.08889941
0.2168757 0.017155012 -0.045124564 0.025197065 -0.080340564 -0.022696147 -0.038995203 -0.166083
0.0014465697 -0.0060575283 -0.08580632 -0.08834283 -0.12468703 0.048592653 -0.09714239 0.15068103
0.3336311 -0.03839695 -0.05815048 -0.0042507085 -0.1037737 0.08969607 0.024919087 -0.041240785
0.12261661 0.07333003 -0.038490083 0.09446718 -0.03893243 -0.0032071085 -0.0689645 0.25797993
0.04107731 0.0077604805 -0.040623445 0.02677391 0.039599802 -0.11424148 -0.09331254 -0.08474998
0.0575546 0.06740293 0.0409042 0.11813283 0.047043994 0.46850342 -0.059321325 -0.0807414
0.072585344 -0.037043173 0.10701898 -0.048984658
00000000: 544d 27bd a81e 303e 3235 233e 8af3 ff3b
00000010: dcee 02be 6d85 a03d eba5 b13e d807 563d
00000020: 6ee6 653d 3089 003e cdd8 35bd 0c24 083e
00000030: 210a e53d 99da a5bc b845 4bbd e2f5 a83e
00000040: 0a8e f03d 0bb0 903c 03b8 4ebe 204f 2e3e
00000050: 77d1 b73e 64c9 ef3c 590a 6ebd 105f 5f3e
00000060: 9719 903e 70ee ed3c a33f 7e3e 109a 503d
00000070: 7462 8bbd 9267 713c 2305 a2bd e510 b6bd
00000080: aa14 5e3e ab88 8c3c 89d4 38bd 136a ce3c
00000090: 9889 a4bd 45ed b9bc 6fb9 1fbd a911 2abe
000000a0: d39a bd3a 3b7e c6bb 39bb afbd 16ed b4bd
000000b0: ea5b ffbd 1709 473d 97f2 c6bd 214c 1a3e
000000c0: b2d1 aa3e 1f46 1dbd 332f 6ebd 8749 8bbb
000000d0: 4e87 d4bd 93b2 b73d 1d23 cc3c 19ec 28bd
000000e0: 6b1e fb3d 0e2e 963d c7a7 1dbd 0278 c13d
000000f0: 9d77 1fbd 5a2e 52bb 433d 8dbd f215 843e
00000100: ae40 283d a14b fe3b c564 26bd f554 db3c
00000110: 6733 223d 70f7 e9bd a51a bfbd 6691 adbd
00000120: 5fbe 6b3d 8c0a 8a3d 2a8b 273d a0ef f13d
00000130: 34b1 403d aedf ef3e ebfa 72bd bf5b a5bd
00000140: a0a7 943d 95ba 17bd c42c db3d 23a4 48bd

fc3.weight f4 [10, 84]
0.11758397 0.09348265 0.12583755 0.12299895 -0.018966721 -0.10761443 0.32584098 0.0131132025
0.013273025 0.104508735 0.16714731 0.21753469 0.04593281 -0.075263076 0.013052654 -0.14890522
-0.23106724 0.19213085 0.07405472 -0.1026801 -0.19088838 0.098202646 0.11196407 -0.19251312
0.28607267 0.018913046 0.0012740352 0.042461876 0.04676845 -0.0874863 -0.047505066 -0.036510304
0.013229317 0.08987454 0.30897 -0.02885349 -0.011395182 0.13701041 0.24637492 -0.06633481
-0.08171927 0.14631702 -0.0056417678 -0.011236493 0.023308927 0.21214372 0.010724996 -0.14011672
-0.20684715 -0.061478317 -0.04890367 -0.17526828 0.082586564 -0.059621707 0.12530085 -0.15867211
0.019352818 -0.12167212 0.05474004 0.057540275 -0.049125794 0.14337756 0.014045384 0.27572954
0.099051945 -0.09811519 -0.06411131 -0.052482873 0.16616543 -0.11674754 0.03129443 0.02110973
-0.031145506 0.1453964 0.08779922 0.03241267 0.032166474 -0.31852993 -0.027574446 -0.046834677
-0.0971487 -0.051739316 0.027215067 -0.09413809 0.20208244 0.06936474 -0.049382802 -0.009392571
-0.030595586 -0.021747746 -0.06733389 -0.055168264 -0.062027823 -0.19173785 0.16765672 -0.2444277
0.16207425 -0.10238328 0.09934788 -0.41104195 -0.2059908 -0.061275974 0.12669116 -0.073437884
-0.089722805 0.043655086 0.06594431 -0.31997573 0.21906634 0.12430271 -0.16960886 -0.03437501
-0.016276691 0.20721616 -0.08318216 0.098563075 -0.08711346 0.054709725 -0.02251819 0.020285234
0.15321805 0.1150665 0.14822996 0.26982108 -0.06541423 -0.008370913 -0.05284666 -0.051917803
-0.0158214 0.03742973 0.20830972 -0.10833103 -0.13812193 -0.03243597 0.098976746 -0.06050385
0.12380825 -0.09964135 0.25687903 0.117392644 0.08274001 0.15944709 -0.087561734 0.12442907
-0.08231521 -0.14301492 0.020595342 -0.19001354 -0.17606169 -0.15470107 -0.101883054 0.16035873
0.42792973 0.1649388 0.086168125 -0.17608345 -0.13451934 -0.18639256 -0.11770562 -0.06305359
0.016032493 -0.07500219 0.0914448 -0.08487735 -0.20804517 0.1316562 0.16492759 -0.12529005
0.009458103 0.04781042 0.073869124 -0.11278682 -0.061893903 -0.13138522 0.012461135 0.0603681
0.04712222 -0.06966259 0.07324187 0.2791106 -0.16213566 0.03688896 0.1316914 0.21807502
0.19697979 0.043379404 0.063580856 -0.08072947 0.077853054 0.08095286 -0.041197553 -0.069466226
-0.14985363 0.10616186 0.089480154 0.11774843 -0.087135084 -0.16467664 0.030424071 0.03799635
0.24990875 -0.12565471 0.033858117 0.2335635 -0.011932378 0.040076107 0.021533627 -0.10606539
0.045226663 0.12338038 0.16789456 -0.17680837 -0.06790823 -0.019119268 -0.03743709 -0.03591456
0.25947353 0.26530585 -0.12337166 -0.14986666 0.07610618 0.13124126 -0.16700643 0.041982457
-0.06925934 0.03100001 0.06523546 -0.08395039 0.023084441 0.094023526 -0.055297446 0.3781487
0.15798804 0.058678105 0.0048799543 -0.007998366 0.04869597 0.04233884 0.059874874 0.033170972
0.02499074 -0.041531403 0.087530985 0.014543028 -0.07666517 0.01204839 0.20906615 -0.055413958
0.055509686 -0.01839425 -0.118238404 -0.041700236 -0.123458706 0.11420127 -0.15763058 -0.12493715
00000000: ddcf f03d d573 bf3d 8fdb 003e e0e6 fb3d
00000010: 1960 9bbc f464 dcbd a1d4 a63e c2d8 563c
00000020: 1a77 593c ad08 d63d aa28 2b3e 6ac1 5e3e
00000030: 0b24 3c3d 8723 9abd cdda 553c 9c7a 18be
00000040: e49c 6cbe f3bd 443e 00aa 973d f249 d2bd
00000050: 3e78 43be 781e c93d 6b4d e53d 2922 45be
00000060: 1e78 923e 88ef 9a3c 87fd a63a 81ec 2d3d
00000070: 4690 3f3d 042c b3bd ac94 42bd d48b 15bd
00000080: c7bf 583c 2510 b83d 5131 9e3e 275e ecbc
00000090: dcb2 3abc 754c 0c3e b549 7c3e 8bda 87bd
000000a0: 6f5c a7bd 21d4 153e 94de b8bb 4419 38bc
000000b0: 5df2 be3c 343c 593e e5b7 2f3c c27a 0fbe
000000c0: bdcf 53be b0d0 7bbd 374f 48bd 8779 33be
000000d0: 2523 a93d e435 74bd de4e 003e f17a 22be
000000e0: cd89 9e3c 3c2f f9bd 1837 603d 5aaf 6b3d
000000f0: 2138 49bd 91d1 123e 9c1e 663c 6c2c 8d3e
00000100: bfdb ca3d 9ef0 c8bd ca4c 83bd 48f8 56bd
00000110: 4527 2a3e 5619 efbd 972e 003d 50ee ac3c
00000120: dc24 ffbc cbe2 143e 14d0 b33d 26c3 043d
00000130: fec0 033d 5b16 a3be cee3 e1bc b8d5 3fbd
00000140: e6f5 c6bd 9bec 53bd 22f2 de3c 79cb c0bd
00000150: b3ee 4e3e 1a0f 8e3d 9f45 4abd 4ce3 19bc
00000160: 98a3 fabc 5428 b2bc 5ae6 89bd 1ef8 61bd
00000170: e310 7ebd ed56 44be 34ae 2b3e 414b 7abe
00000180: cbf6 253e 53ae d1bd e776 cb3d 1774 d2be
00000190: 41ef 52be 84fc 7abd 54bb 013e 9a66 96bd
000001a0: 97c0 b7bd adcf 323d cf0d 873d dcd3 a3be
000001b0: ed52 603e 6b92 fe3d f2ad 2dbe cfcc 0cbd
000001c0: b256 85bc 7930 543e 695b aabd 70db c93d
000001d0: 8b68 b2bd 4e17 603d 1178 b8bc 382d a63c
000001e0: 31e5 1c3e fca7 eb3d 98c9 173e fd25 8a3e
000001f0: e5f7 85bd 2726 09bc bd75 58bd c3a7 54bd
00000200: e19b 81bc eb4f 193d 254f 553e a9dc ddbd
00000210: d66f 0dbe 94db 04bd 52b4 ca3d e3d2 77bd
00000220: 2e8f fd3d c410 ccbd a685 833e 8e6b f03d
00000230: 9873 a93d 1946 233e 9153 b3bd abd4 fe3d
00000240: e094 a8bd 8172 12be 90b7 a83c e992 42be
00000250: 8449 34be f569 1ebe 10a8 d0bd 1435 243e
00000260: 9b19 db3e b7e5 283e ea78 b03d 384f 34be
00000270: 70bf 09be b1dd 3ebe a50f f1bd 3e22 81bd
00000280: 9356 833c c09a 99bd 6947 bb3d 2dd4 adbd
00000290: cb09 55be e2d0 063e c7e2 283e 094c 00be
000002a0: 29f6 1a3c dcd4 433d b248 973d c7fc e6bd
000002b0: 7684 7dbd d989 06be ca29 4c3c 8a44 773d
000002c0: 3b03 413d 43ab 8ebd d5ff 953d 96e7 8e3e
000002d0: e406 26be e118 173d 1cda 063e 0f4f 5f3e
000002e0: 12b5 493e 9aae 313d ae36 823d 7e55 a5bd
000002f0: 6c71 9f3d 9dca a53d c4be 28bd 4f44 8ebd
00000300: 3b73 19be 646b d93d 5f41 b73d 1726 f13d
00000310: e173 b2bd fea0 28be e73b f93c 10a2 1b3d
00000320: 14e8 7f3e a1ab 00be cfae 0a3d 452b 6f3e
00000330: 0580 43bc d826 243d 4a67 b03c d038 d9bd
00000340: 983f 393d daae fc3d 8dec 2b3e 410d 35be
00000350: 7813 8bbd 03a0 9cbc a257 19bd 251b 13bd
00000360: b7d9 843e 2bd6 873e 48aa fcbd a576 19be
00000370: 8fdd 9b3d 1c64 063e bc03 2bbe ccf5 2b3d
00000380: d7d7 8dbd bcf3 fd3c 2b9a 853d 2fee abbd
00000390: 951b bd3c 688f c03d 937f 62bd b59c c13e
000003a0: 9ec7 213e 7458 703d 06e8 9f3b 940b 03bc
000003b0: 6d75 473d 7e6b 2d3d 5b3f 753d 49de 073d
000003c0: 61b9 cc3c d51c 2abd 7243 b33d e145 6e3c
000003d0: a102 9dbd 9c66 453c 7015 563e bff9 62bd
000003e0: 205e 633d 8aaf 96bc fa26 f2bd decd 2abd
000003f0: ebd7 fcbd 5be2 e93d e969 21be 0cdf ffbd

fc3.bias f4 [10]
-0.1343101 -0.6053136 0.109516375 0.22788233 0.49863407 -0.10974785 0.015109013 -0.25807196
0.37303138 -0.2722853
00000000: 9688 09be d5f5 1abf 1f4a e03d fc59 693e
00000010: f74c ff3e 7bc3 e0bd cb8b 773c 0222 84be
00000020: f8fd be3e fb68 8bbe
